data.pth (torch, 8895 bytes, 6 tensors)

l1.weight f4 [8, 115]
0	0x3f995568	1.1979189
1	0x3f0c0ed8	0.5471015
2	0x3f90f2cc	1.1324096
3	0x3e78a676	0.2428225
4	0xbfb79c51	-1.4344579
5	0xbeb7d3f0	-0.35903883
6	0x3f6fae3e	0.9362525
7	0xbc23ae43	-0.009990278
8	0x3f018e7c	0.5060804
9	0x3e17b8a0	0.14816523
10	0x3f949f75	1.1611162
11	0x3f8868d6	1.0656993
12	0x3da25d9c	0.07928011
13	0x3ef4f3d1	0.47842267
14	0xbe804811	-0.25054982
15	0x3fdb9ca5	1.7157179
16	0xbe81fbb1	-0.25387338
17	0x3f8db554	1.1070962
18	0x3f9ccec8	1.2250605
19	0x3f2acc46	0.66717947
20	0x3ea6d0f0	0.32581282
21	0x3f9ac85f	1.2092398
22	0x3ed930e8	0.42420125
23	0xbe8cfcc6	-0.275366
24	0x3e5952aa	0.2122294
25	0x3ec0e4c3	0.3767453
26	0x3ece395a	0.4027813
27	0x3f706137	0.9389834
28	0x3f51c1cf	0.81936353
29	0x3f339727	0.70152515
30	0x3f853155	1.040568
31	0x3f82eac9	1.0227901
32	0x3ec95d28	0.39328885
33	0x3f9ec510	1.2403889
34	0x3f2950ec	0.661391
35	0x3f3ef7e5	0.7459701
36	0x3e095480	0.1341114
37	0x3f8ef9fa	1.1170037
38	0x3f9c6272	1.2217543
39	0x3e96a37f	0.29421613
40	0x3e1ecf25	0.15508707
41	0x3f34d525	0.7063773
42	0x3f881133	1.0630249
43	0x3ebcb9e0	0.3686056
44	0x3f4f04e5	0.80866843
45	0x3f86032c	1.0469718
46	0xbda6384c	-0.081162065
47	0x3f0d5527	0.5520806
48	0x3f351c47	0.7074627
49	0xbc9efb84	-0.019407041
50	0x3e03a63d	0.12856384
51	0x3fc388e1	1.5276147
52	0x3f8d7ded	1.1054054
53	0x3f2e2a55	0.68033344
54	0x3f0e8c77	0.5568308
55	0x3fb65823	1.4245647
56	0x3f8ed818	1.1159697
57	0x3eab8362	0.33498675
58	0x3d8e3319	0.0694334
59	0x3cb8799a	0.022518922
60	0x3d2099db	0.039209228
61	0x3e0b7c5b	0.13621657
62	0x3da40f62	0.080107465
63	0x3f600de5	0.875212
64	0x3f5ac125	0.85450965
65	0x3eaed6fe	0.341484
66	0x3efb78b1	0.49115518
67	0x3eaa09c3	0.33210573
68	0x3ef54b3c	0.47908962
69	0xbe6d6710	-0.23183846
70	0x3f6a2dfd	0.9147642
71	0x3fa304d0	1.2735844
72	0x3f8393cc	1.0279479
73	0x3ff0b1f7	1.880431
74	0x3e0f8ee0	0.14019346
75	0x3fa2e34a	1.2725613
76	0x3e43a71b	0.19106714
77	0x3f416ba5	0.7555488
78	0x3f06bfde	0.52636516
79	0xbe94f2f7	-0.29091617
80	0x3f82137b	1.0162195
81	0xbd06cf05	-0.032912273
82	0xbe8b763d	-0.27238646
83	0x3f841553	1.0319008
84	0x3f87bf94	1.060534
85	0x3f89c032	1.0761778
86	0x3f789915	0.97108585
87	0x3fa924f5	1.3214403
88	0x3f5d4bdd	0.86443883
89	0xbf3710be	-0.7150992
90	0x3f948ea2	1.1606028
91	0x3f830c1c	1.023807
92	0x3f81c96e	1.0139596
93	0x3d6f2363	0.058383357
94	0xbea048b5	-0.3130547
95	0x3e238464	0.15968472
96	0x3f84f6dd	1.0387837
97	0x3e397235	0.18109973
98	0x3e911967	0.28339693
99	0xbcd3a28b	-0.025834342
100	0x3f8c05f9	1.0939323
101	0x3ed10f11	0.40831807
102	0x3f6efebc	0.93357444
103	0xbc15eeff	-0.009151219
104	0x3f52fdde	0.8241862
105	0x3f68d1cf	0.9094514
106	0x3e7c352f	0.24629663
107	0x3f587381	0.84551245
108	0x3c7466a2	0.014917048
109	0x3f480124	0.7812674
110	0x3f5a26a7	0.8521523
111	0x3f379e5d	0.7172602
112	0x3f52c9c6	0.8233913
113	0x3f528811	0.8223887
114	0x3f4835b0	0.7820692
115	0xbf310b25	-0.6915763
116	0x3e228430	0.15870738
117	0xbf251e24	-0.64499116
118	0xbdc5656d	-0.09638486
119	0x3fce729d	1.6128727
120	0xbea59171	-0.32337525
121	0xbedc4335	-0.43020025
122	0x3f4b2ef3	0.79368514
123	0x3eb6bc7c	0.35690677
124	0x3f089b99	0.53362423
125	0x3f8aa5e6	1.0831878
126	0x3f9103b2	1.1329253
127	0x3f81295c	1.0090747
128	0x3e576eb9	0.21038331
129	0xbe33f317	-0.175732
130	0x3c3a1a6e	0.01135884
131	0xbf34a9ea	-0.7057177
132	0x3f8c3d46	1.0956199
133	0x3f002ee0	0.50071526
134	0x3f265c71	0.64984804
135	0x3f51e7b2	0.81994164
136	0x3f164c94	0.587106
137	0x3f6af0e6	0.9177383
138	0xbe09c1af	-0.1345279
139	0x3f2d09ba	0.67592967
140	0xbf3509d2	-0.7071811
141	0x3f47e94e	0.7809037
142	0xbf0ca936	-0.54945695
143	0x3efc8267	0.4931824
144	0xbcdcb2e4	-0.02694077
145	0xbe852ebb	-0.26012215
146	0xbebde9b5	-0.37092367
147	0xbe86803d	-0.26269713
148	0xbf1c7e47	-0.61130184
149	0x3ed49791	0.41521886
150	0xbd822b4c	-0.063559145
151	0xbdd5453b	-0.10413595
152	0xbf0ece6c	-0.55783725
153	0x3f5f9544	0.87337136
154	0x3f4aa48f	0.79157346
155	0x3f81a850	1.012949
156	0x3f1957c5	0.5989955
157	0x3f8e1dd8	1.1102858
158	0x3ed1cd3f	0.40976903
159	0x3e263ecf	0.16234897
160	0xbf0f7aa4	-0.5604651
161	0x3f871abc	1.0555034
162	0xbdaad791	-0.08341897
163	0x3dcc725c	0.0998275
164	0x3f8acf21	1.0844461
165	0x3f8f3f16	1.1191127
166	0x3f27ddbf	0.6557273
167	0x3f92b9ca	1.1462948
168	0x3ef5ca2f	0.48005816
169	0x3f097146	0.53688467
170	0x3f89784b	1.0739836
171	0x3f9068d5	1.1281992
172	0x3f32b790	0.69811344
173	0xbf20906b	-0.62720364
174	0xbe096900	-0.1341896
175	0xbef3d3a4	-0.47622406
176	0xbe5fdc14	-0.21861297
177	0x3f12279e	0.570917
178	0xbe007347	-0.12543975
179	0xbd946279	-0.07245345
180	0x3e91a910	0.28449297
181	0xbe22643f	-0.15858553
182	0x3eb966a5	0.36211124
183	0xbd13e997	-0.03611144
184	0xbee0b7d3	-0.43890247
185	0xbdf1bdbb	-0.11803766
186	0x3f426a89	0.7594381
187	0xbf15e486	-0.58551824
188	0x3ef6b2da	0.48183328
189	0xbea34c84	-0.31894314
190	0xbf185173	-0.5949928
191	0xbf11847d	-0.56842786
192	0x3e0fb971	0.14035584
193	0x3eaf2c0d	0.34213296
194	0xbf2c1bc2	-0.67229855
195	0xbf33905c	-0.7014215
196	0x3e64659e	0.22304389
197	0x3e0eca71	0.13944413
198	0xbee0c8f2	-0.4390331
199	0x3f8aa264	1.0830808
200	0xbe976420	-0.29568577
201	0xbecd9003	-0.40148935
202	0x3f10c387	0.5654835
203	0xbdf0c12b	-0.11755594
204	0x3fee4a38	1.86164
205	0x3f919f7e	1.1376798
206	0xbf25058e	-0.644616
207	0xbf08bfc6	-0.53417623
208	0x3efff3e4	0.4999076
209	0xbf3dde9c	-0.741678
210	0xbf3e5aa5	-0.7435706
211	0x3f5fd283	0.8743059
212	0xbe06ba4a	-0.13157001
213	0xbe58885c	-0.21145767
214	0xbdc53dcb	-0.09630927
215	0xbee35d84	-0.44407284
216	0xbdf688bc	-0.12037799
217	0x3f6244ba	0.8838612
218	0x3ddee4c5	0.10883478
219	0x3f54af6e	0.83080184
220	0x3ee1ff4f	0.44140097
221	0xbeb9a660	-0.36259747
222	0x3f57d794	0.8431332
223	0xbe96a5de	-0.29423422
224	0x3ef2f256	0.47450513
225	0xbe8b624c	-0.27223432
226	0x3f4b786c	0.79480624
227	0x3f5871a7	0.8454842
228	0x3dfc8b92	0.123313084
229	0xbe2a13d8	-0.16609132
230	0x3f94cef0	1.1625652
231	0x3d492284	0.049105182
232	0x3f1d62fd	0.6147917
233	0x3f3620e1	0.7114392
234	0x3f70bc0c	0.94036937
235	0xbebced0a	-0.36899596
236	0x3f76ca56	0.9640249
237	0xbebdc0ec	-0.3706125
238	0x3f089c59	0.5336357
239	0xbf2f8610	-0.6856394
240	0x3faef802	1.3669436
241	0x3fb0cb69	1.3812076
242	0xbee4d7ad	-0.44695798
243	0x3f114bc9	0.56756264
244	0xbec1c5bb	-0.3784617
245	0x3fe57c5e	1.7928579
246	0xbd610e29	-0.054945145
247	0x3fa8dc16	1.3192165
248	0xbf76b4cd	-0.9636963
249	0x3f1bbd76	0.6083597
250	0x3fb07c99	1.3788024
251	0xbf6679bc	-0.900295
252	0x3faf9214	1.3716455
253	0xbee1a68f	-0.44072387
254	0xbd5922f1	-0.05301184
255	0x3f6837ec	0.9071033

l1.bias f4 [8]
0	0x3fe903be	1.8204267
1	0x400c2746	2.189897
2	0x4009fa48	2.155901
3	0x3fb4d74c	1.4128203
4	0x3fc09ad3	1.5047249
5	0x400263e1	2.0373461
6	0x3f9efcdb	1.2420915
7	0x3feefb38	1.8670416

l2.weight f4 [8, 8]
0	0x3fafcf2b	1.3735098
1	0x3ffd338c	1.9781356
2	0x3fa42db6	1.282645
3	0xbfacb715	-1.3493372
4	0x40383c4d	2.8786805
5	0x402fc78c	2.7465544
6	0x3f7b0e58	0.9806876
7	0x3f4fd9f0	0.8119192
8	0x3f570fbe	0.84008396
9	0x4008079f	2.1254652
10	0x3fa2418d	1.2676255
11	0x40115d15	2.2713063
12	0xbf9503c9	-1.164178
13	0x4004f752	2.0775952
14	0x401d63e9	2.459223
15	0x4044d31d	3.0753853
16	0x3f8b6cd1	1.0892583
17	0x3fef7394	1.8707147
18	0x4038fa89	2.8902915
19	0x40317b73	2.7731597
20	0x3ffe292b	1.9856313
21	0x3f826570	1.0187206
22	0x40212e39	2.5184462
23	0x3f065856	0.5247854
24	0x402bdcd8	2.6853542
25	0xbead6a1e	-0.33870023
26	0x401f74e4	2.4915094
27	0x3fe1ee88	1.7650919
28	0x3f14f235	0.5818208
29	0x40035a92	2.052403
30	0xbf65d40f	-0.897767
31	0x3d89556b	0.06705745
32	0xbe8d62c9	-0.2761443
33	0xbe649540	-0.2232256
34	0xbe20062a	-0.15627351
35	0x3e4899ca	0.19589916
36	0x3db5e29c	0.08881113
37	0x3e0e54de	0.13899562
38	0xbe153dfc	-0.14574426
39	0x3d9348f8	0.07191652
40	0x3fec8877	1.8479146
41	0xbfa8883c	-1.3166575
42	0x3f47d8c4	0.78065133
43	0x3e5b2b4a	0.21403232
44	0x3f6f2a79	0.93424183
45	0x3f8cc573	1.0997757
46	0x3fd6e284	1.6787877
47	0x4010a640	2.260147
48	0x402f3918	2.7378597
49	0x3ff31119	1.8989593
50	0x3ede3843	0.434023
51	0xbed730dd	-0.42029467
52	0x3f44a522	0.7681447
53	0x40282030	2.6269646
54	0xbf377b6a	-0.7167269
55	0x4000ea7b	2.0143116
56	0x3febf392	1.8433707
57	0x3fb171d8	1.3862867
58	0x3faeb005	1.3647467
59	0x3f39c7d0	0.72570515
60	0x3fef5e75	1.8700701
61	0xbf5af387	-0.85527843
62	0xbeaae03c	-0.33374202
63	0x40227522	2.5383992

l2.bias f4 [8]
0	0x3e8dd4a2	0.27701288
1	0x3f224d5a	0.6339928
2	0x3f9ddfaa	1.2333882
3	0x3f0015a3	0.50033015
4	0xbe5654fd	-0.20930858
5	0xbeaf9a61	-0.3429747
6	0x3f98209b	1.188495
7	0x3e48d14a	0.19611087

l3.weight f4 [24, 8]
0	0xbeaf46bf	-0.34233662
1	0xc00c0955	-2.1880696
2	0xbe8396dd	-0.25701037
3	0xc0353f11	-2.8319743
4	0xbe9228e2	-0.28546816
5	0x3ee1270c	0.43975103
6	0xbf162338	-0.5864749
7	0x3ef26b41	0.47347453
8	0xbd883e54	-0.06652513
9	0xbf1064c0	-0.5640373
10	0xbff25fa3	-1.8935436
11	0xbec889e0	-0.3916769
12	0xbe610e33	-0.21978073
13	0xbfcf3e94	-1.6190972
14	0xbdacf0a5	-0.08444337
15	0xbf68042d	-0.9063137
16	0xc01b8a28	-2.4303074
17	0x3e8759e2	0.26435763
18	0x3eb3b110	0.35096025
19	0x3e8f4708	0.2798388
20	0xbde31892	-0.11088671
21	0xc01bd08a	-2.4346032
22	0xbfcb8487	-1.5899819
23	0xbfa78c5e	-1.3089712
24	0xbf1c81ae	-0.61135375
25	0xbfeb1f41	-1.8368913
26	0xbfe29358	-1.7701216
27	0xbe82467f	-0.2544441
28	0xbe822015	-0.25415102
29	0x3eddb3d1	0.43301252
30	0xbee88f7c	-0.4542197
31	0xbe55fa64	-0.20896298
32	0xc0194343	-2.3947303
33	0xbe3eea3e	-0.18644044
34	0xbf4c069e	-0.796976
35	0xbe53f554	-0.20699054
36	0x3e3a84c6	0.18214712
37	0x3ecfd7cf	0.40594336
38	0xbf643e6e	-0.8915776
39	0xbfbd01ec	-1.4766212
40	0xc00f6a51	-2.240864
41	0xc0221bfc	-2.532958
42	0xbedf791e	-0.43647093
43	0x3ed055fb	0.40690598
44	0xbe5a8362	-0.21339181
45	0x3e817a8f	0.25288817
46	0xbf2749fe	-0.6534728
47	0x3e3b28cd	0.18277283
48	0x3ed38198	0.4130981
49	0xbfe90557	-1.8204755
50	0xc0061fe1	-2.0956957
51	0xbfd2ff3e	-1.6484144
52	0x3dab0afc	0.083517045
53	0xbd246da9	-0.040143643
54	0x3e9ba988	0.3040278
55	0xbe2d1f06	-0.16906366
56	0xc0279fc4	-2.6191263
57	0x3e7ef9d3	0.24899988
58	0x3c61063e	0.013734398
59	0xbfc9f6de	-1.5778463
60	0xbea013a0	-0.31264973
61	0xbed867b0	-0.42266607
62	0xc001a3d3	-2.025624
63	0x3e551f29	0.20812668
64	0xc019ccc7	-2.4031236
65	0xbf6524b0	-0.89509106
66	0x3e049376	0.12946877
67	0x3f7b8dbd	0.9826315
68	0x3e2a5882	0.16635326
69	0xbe52b545	-0.20576961
70	0xbfb0f0a5	-1.3823439
71	0xc0171c0d	-2.361087
72	0xbf325a0e	-0.6966866
73	0xbd956ad2	-0.07295765
74	0xc0137ce5	-2.304498
75	0xbfe471f6	-1.7847278
76	0xbeaeb087	-0.34119055
77	0xbf3644fe	-0.71199024
78	0x3e37312e	0.17889854
79	0x3d9589bb	0.073016606
80	0xbf03bf0a	-0.5146338
81	0x3f2975e7	0.6619553
82	0x3f41ca27	0.75699085
83	0xc0136981	-2.3033144
84	0x3eaac3cf	0.33352515
85	0xc0246b83	-2.569062
86	0xc0170ce5	-2.360162
87	0xbf936d1c	-1.1517673
88	0x3e07639c	0.13221592
89	0xbfe55fc2	-1.7919848
90	0x3d3e238f	0.04642063
91	0xbf5addc2	-0.85494626
92	0xbeb0d0d6	-0.3453433
93	0xbe3badd1	-0.18328024
94	0xbede2053	-0.43384036
95	0xc0337bc8	-2.80443
96	0xbfd8247f	-1.6886138
97	0xbf66550a	-0.8997351
98	0x3e4c80a8	0.19970953
99	0x3daf47d4	0.08558622
100	0x3e11aa98	0.14225233
101	0x3d455597	0.048177328
102	0xc060b947	-3.5113084
103	0xbdeb5794	-0.114913136
104	0xbf97a64c	-1.1847625
105	0xc02d5b5a	-2.7087007
106	0x3f1d99d4	0.6156285
107	0x3f5b0625	0.8555625
108	0xbc9bef40	-0.019034982
109	0xc032bbe6	-2.7927184
110	0xbfc2422f	-1.5176448
111	0x3e7a59a8	0.24448264
112	0xbfe4340b	-1.7828382
113	0x3f0c559e	0.5481814
114	0xbc7866b5	-0.015161206
115	0xc045ee92	-3.0926862
116	0x3d3ac900	0.045601845
117	0xc0781cac	-3.87675
118	0x3f16be17	0.58883804
119	0x3e3bef16	0.18352923
120	0x3f34f487	0.7068562
121	0xbf410223	-0.75393885
122	0xbea5a9fd	-0.32356253
123	0xc074e5fb	-3.826537
124	0xbe7fbc44	-0.24974161
125	0xc00151c8	-2.0206165
126	0x3eea051d	0.45707026
127	0xbf5590e6	-0.8342422
128	0xbfb1c504	-1.3888249
129	0xbf9028d7	-1.1262463
130	0xbf278267	-0.65433353
131	0xbef39df6	-0.47581452
132	0xbe904a82	-0.28181845
133	0xbf9b77b4	-1.2145905
134	0xbf2ea649	-0.6822248
135	0x3e22a4f1	0.15883233
136	0x3e9e7cdc	0.30954635
137	0xc0399c3b	-2.9001606
138	0xbee33890	-0.4437909
139	0xbe3c6702	-0.1839867
140	0xbe868a7b	-0.26277527
141	0xc04168d2	-3.0220227
142	0x3e2f2a34	0.17105943
143	0xbd2a8315	-0.041628916
144	0xbf26e797	-0.6519713
145	0xbe87cfe6	-0.265258
146	0x3d3480a4	0.044067994
147	0xbfc0979c	-1.5046268
148	0xbd198f70	-0.03749031
149	0x3f018b87	0.50603527
150	0xc0031db3	-2.0486877
151	0xbffb1c87	-1.9618081
152	0xbd8c3b52	-0.06847252
153	0x3f0ef0cd	0.5583618
154	0xbf7f8964	-0.99819016
155	0xc00b168b	-2.173251
156	0x3e13fb64	0.14451367
157	0xbdc6628b	-0.09686764
158	0xbe008616	-0.1255115
159	0xc05a8db5	-3.414899
160	0xbeeb7cdb	-0.45993695
161	0xc042e420	-3.0451736
162	0xbf6ffa7f	-0.937416
163	0x3f4b8cdc	0.7951181
164	0xbe7a0f40	-0.2441988
165	0xbd5ed0f7	-0.054398503
166	0x3cdffe42	0.02734292
167	0xbfcc3747	-1.5954369
168	0xc0320b81	-2.7819521
169	0x3f86ff4b	1.0546659
170	0x3eb5efd4	0.35534537
171	0xbfb2d932	-1.3972533
172	0x3d0b0648	0.033941537
173	0x3e7d2d68	0.24724352
174	0xbf809cda	-1.0047867
175	0xc055debf	-3.3417203
176	0x3eb80bb7	0.35946438
177	0xbd0aa99d	-0.033853162
178	0x3ef78201	0.48341373
179	0xbfa13add	-1.2596089
180	0x3e89b5d5	0.2689654
181	0xc0469b13	-3.103215
182	0xbf021706	-0.5081638
183	0xc05965e0	-3.396843
184	0xbfcb691b	-1.5891451
185	0x3e1b3739	0.15157785
186	0xbf0f3f1d	-0.5595568
187	0x3f048fd2	0.5178195
188	0x3d9c57dc	0.07633945
189	0xbfb6f89a	-1.4294617
190	0x3f174458	0.5908866
191	0xc08e0dde	-4.439193

l3.bias f4 [24]
0	0xbe09af0b	-0.1344568
1	0xbf125653	-0.5716297
2	0xbe9b9d53	-0.30393466
3	0xbebbaa65	-0.36653438
4	0xbecc1d4b	-0.398661
5	0xbeb536cb	-0.35393366
6	0xbe47ff85	-0.19531067
7	0xbeba2166	-0.36353606
8	0xbeae8352	-0.34084564
9	0xbeac0ade	-0.3360204
10	0xbd8c33ff	-0.06845855
11	0xbecad74b	-0.3961738
12	0x3e152893	0.14566259
13	0x3f23002b	0.6367213
14	0x3dc31065	0.095246114
15	0x3f135459	0.5755058
16	0x3e9bbfe2	0.30419832
17	0xbdec98c0	-0.11552572
18	0x3e792fa3	0.24334578
19	0xbda99c72	-0.08281793
20	0xbec73ece	-0.38915104
21	0x3e0d6ad4	0.13810283
22	0xbd8b4ae2	-0.06801392
23	0x3e1a3514	0.1505931
